=== FOOD MODEL PARAMETERS ===

Food Model 1 (model1.pt):
  input_size: 1
  output_size: 1
  hidden_size: 64
  num_layers: 2
  batch_size: 16
  learning_rate: 0.001
  bidirectional: False
  dropout: 0
  model1_all_losses_train: [… model1_all_losses_test: [… model1_all_q_losses_test: [… model2_all_losses_train: [… model2_all_losses_test: [… model2_all_q_losses_test: [… best_model1: RNN(
  (rnn): RNN(1, 64, num_layers=2, batch_first=True)
  (fc): Linear(in_features=64, out_features=1, bias=True)
)
  best_model2: RNN(
  (rnn): RNN(1, 64, num_layers=2, batch_first=True)
  (fc): Linear(in_features=64, out_features=1, bias=True)
)
  model1_best_loss: 13.424717849493026
  model1_best_epoch: 130
  model1_epochs: 181
  model2_best_loss: 27.02604043483734
  model2_best_epoch: 248
  model2_epochs: 299
  model1_best_q_loss: 0.3533502338810649
  model1_best_q_epoch: 130
  model2_best_q_loss: 0.5119193468242884
  model2_best_q_epoch: 31
  best_q_model1: RNN(
  (rnn): RNN(1, 64, num_layers=2, batch_first=True)
  (fc): Linear(in_features=64, out_features=1, bias=True)
)
  best_q_model2: RNN(
  (rnn): RNN(1, 64, num_layers=2, batch_first=True)
  (fc): Linear(in_features=64, out_features=1, bias=True)
)

Food Model 2 (newModel2.pt):
  input_size: 1
  output_size: 1
  hidden_size: 128
  num_layers: 2
  batch_size: 16
  learning_rate: 0.0001
  bidirectional: False
  dropout: 0
  newModel2_all_losses_train: [… newModel2_all_losses_test: [… newModel2_all_q_losses_test: [… best_newModel2: RNN2(
  (rnn): RNN(1, 128, num_layers=2, batch_first=True)
  (fc1): Linear(in_features=128, out_features=1, bias=True)
  (fc2): Linear(in_features=2, out_features=4, bias=True)
  (fc3): Linear(in_features=4, out_features=1, bias=True)
)
  newModel2_best_loss: 27.01631145477295
  newModel2_best_epoch: 273
  newModel2_epochs: 324
  newModel2_best_q_loss: 0.4682429477572441
  newModel2_best_q_epoch: 138
  best_q_newModel2: RNN2(
  (rnn): RNN(1, 128, num_layers=2, batch_first=True)
  (fc1): Linear(in_features=128, out_features=1, bias=True)
  (fc2): Linear(in_features=2, out_features=4, bias=True)
  (fc3): Linear(in_features=4, out_features=1, bias=True)
)

=== SITE MODEL PARAMETERS ===

Site Model 1 (model1.pt):
  input_size: 1
  output_size: 1
  hidden_size: 64
  num_layers: 2
  batch_size: 16
  learning_rate: 0.001
  bidirectional: False
  dropout: 0
  model1_all_losses_train: [… model1_all_losses_test: [… model1_all_q_losses_test: [… model2_all_losses_train: [… model2_all_losses_test: [… model2_all_q_losses_test: [… best_model1: RNN(
  (rnn): GRU(1, 64, num_layers=2, batch_first=True)
  (fc): Linear(in_features=64, out_features=1, bias=True)
)
  best_model2: RNN(
  (rnn): GRU(1, 64, num_layers=2, batch_first=True)
  (fc): Linear(in_features=64, out_features=1, bias=True)
)
  model1_best_loss: 26.617581009864807
  model1_best_epoch: 180
  model1_epochs: 231
  model2_best_loss: 30.68016247188344
  model2_best_epoch: 26
  model2_epochs: 77
  model1_best_q_loss: 0.5632044111981112
  model1_best_q_epoch: 5
  model2_best_q_loss: 0.4428057685384856
  model2_best_q_epoch: 10
  best_q_model1: RNN(
  (rnn): GRU(1, 64, num_layers=2, batch_first=True)
  (fc): Linear(in_features=64, out_features=1, bias=True)
)
  best_q_model2: RNN(
  (rnn): GRU(1, 64, num_layers=2, batch_first=True)
  (fc): Linear(in_features=64, out_features=1, bias=True)
)

Site Model 2 (newModel2.pt):
  input_size: 1
  output_size: 1
  hidden_size: 128
  num_layers: 2
  batch_size: 128
  learning_rate: 0.001
  bidirectional: False
  dropout: 0
  newModel2_all_losses_train: [… newModel2_all_losses_test: [… newModel2_all_q_losses_test: [… best_newModel2: RNN2(
  (rnn): GRU(1, 128, num_layers=2, batch_first=True)
  (fc1): Linear(in_features=128, out_features=1, bias=True)
  (fc2): Linear(in_features=2, out_features=4, bias=True)
  (fc3): Linear(in_features=4, out_features=1, bias=True)
)
  newModel2_best_loss: 26.001150767008465
  newModel2_best_epoch: 24
  newModel2_epochs: 75
  newModel2_best_q_loss: 0.32409619943549234
  newModel2_best_q_epoch: 24
  best_q_newModel2: RNN2(
  (rnn): GRU(1, 128, num_layers=2, batch_first=True)
  (fc1): Linear(in_features=128, out_features=1, bias=True)
  (fc2): Linear(in_features=2, out_features=4, bias=True)
  (fc3): Linear(in_features=4, out_features=1, bias=True)
)

=== MODEL CONFIGURATION PARAMETERS ===
Looking for configuration parameters that define model architecture...

Food Model 1:
  num_layers: 2
  hidden_size: 64
  input_size: 1
  output_size: 1
  bidirectional: False
  dropout: 0
  batch_size: 16

Food Model 2:
  num_layers: 2
  hidden_size: 128
  input_size: 1
  output_size: 1
  bidirectional: False
  dropout: 0
…
